/usr/bin/python2.7 /home/jdwang/PycharmProjects/digitRecognition/cnn/cnn_train.py
Using Theano backend.
____________________________________________________________________________________________________
Layer (type)                     Output Shape          Param #     Connected to
====================================================================================================
zeropadding2d_1 (ZeroPadding2D)  (None, 1, 17, 17)     0           zeropadding2d_input_1[0][0]
____________________________________________________________________________________________________
convolution2d_1 (Convolution2D)  (None, 32, 15, 15)    320         zeropadding2d_1[0][0]
____________________________________________________________________________________________________
activation_1 (Activation)        (None, 32, 15, 15)    0           convolution2d_1[0][0]
____________________________________________________________________________________________________
maxpooling2d_1 (MaxPooling2D)    (None, 32, 7, 7)      0           activation_1[0][0]
____________________________________________________________________________________________________
zeropadding2d_2 (ZeroPadding2D)  (None, 32, 9, 9)      0           maxpooling2d_1[0][0]
____________________________________________________________________________________________________
convolution2d_2 (Convolution2D)  (None, 64, 7, 7)      18496       zeropadding2d_2[0][0]
____________________________________________________________________________________________________
activation_2 (Activation)        (None, 64, 7, 7)      0           convolution2d_2[0][0]
____________________________________________________________________________________________________
maxpooling2d_2 (MaxPooling2D)    (None, 64, 3, 3)      0           activation_2[0][0]
____________________________________________________________________________________________________
convolution2d_3 (Convolution2D)  (None, 128, 1, 1)     73856       maxpooling2d_2[0][0]
____________________________________________________________________________________________________
activation_3 (Activation)        (None, 128, 1, 1)     0           convolution2d_3[0][0]
____________________________________________________________________________________________________
flatten_1 (Flatten)              (None, 128)           0           activation_3[0][0]
____________________________________________________________________________________________________
dense_1 (Dense)                  (None, 100)           12900       flatten_1[0][0]
____________________________________________________________________________________________________
activation_4 (Activation)        (None, 100)           0           dense_1[0][0]
____________________________________________________________________________________________________
dropout_1 (Dropout)              (None, 100)           0           activation_4[0][0]
____________________________________________________________________________________________________
dense_2 (Dense)                  (None, 50)            5050        dropout_1[0][0]
____________________________________________________________________________________________________
activation_5 (Activation)        (None, 50)            0           dense_2[0][0]
____________________________________________________________________________________________________
dropout_2 (Dropout)              (None, 50)            0           activation_5[0][0]
____________________________________________________________________________________________________
dense_3 (Dense)                  (None, 34)            1734        dropout_2[0][0]
____________________________________________________________________________________________________
activation_6 (Activation)        (None, 34)            0           dense_3[0][0]
====================================================================================================
Total params: 112356
____________________________________________________________________________________________________
None
Epoch 1/40
3400/3400 [==============================] - 16s - loss: 3.5192 - acc: 0.0438
Epoch 2/40
3400/3400 [==============================] - 16s - loss: 3.3979 - acc: 0.0800
…
